name: "deepID_network"
layer {
  name: "data1"
  top: "data1"
  top: "label1"
  type: "Data"
  data_param {
  source: "/home/ghzeng/myCaffe_9.5/examples/deepid2/webface_train_lmdb_p1"
    backend:LMDB
    batch_size: 128
  }
  transform_param {
     mean_value: 127.5
     scale: 0.0078125
  }
  include {
    phase: TRAIN
  }
}
layer {
  name: "data2"
  top: "data2"
  top: "label2"
  type: "Data"
  data_param {
  source: "/home/ghzeng/myCaffe_9.5/examples/deepid2/webface_train_lmdb_p2"
    backend:LMDB
    batch_size: 128
  }
  transform_param {
     mean_value: 127.5
     scale: 0.0078125
  }
  include {
    phase: TRAIN
  }
}
layer {
  name: "input_data"
  top: "data"
  top: "label"
  type: "Data"
  data_param {
  source: "/home/ghzeng/myCaffe_9.5/examples/deepid2/webface_val_lmdb"
    backend:LMDB
    batch_size: 64
  }
  transform_param {
     mean_value: 127.5
     scale: 0.0078125
  } 
  include: {
    phase: TEST
  }
}
layer {
  name: "concat_data"
  bottom: "data1"
  bottom: "data2"
  top: "data"
  type: "Concat"
  concat_param {
    axis: 0
  }
  include {
    phase: TRAIN
  }
}
layer {
  name: "concat_label"
  bottom: "label1"
  bottom: "label2"
  top: "label"
  type: "Concat"
  concat_param {
    axis: 0
  }
  include {
    phase: TRAIN
  }
}
layer {
  name: "conv1"
  type: "Convolution"
  bottom: "data"
  top: "conv1"
  param {
    name: "conv1_w"
    lr_mult: 1
    decay_mult: 0
  }
  param {
    name: "conv1_b"
    lr_mult: 2
    decay_mult: 0
  }
  convolution_param {
    num_output: 20
    kernel_size: 4
    stride: 1
    weight_filler {
      type: "gaussian"
      std: 0.01
    }
    bias_filler {
      type: "constant"
    }
  }
}

layer {
  name: "relu1"
  type: "ReLU"
  bottom: "conv1"
  top: "conv1"
}
layer {
  name: "pool1"
  type: "Pooling"
  bottom: "conv1"
  top: "pool1"
  pooling_param {
    pool: MAX
    kernel_size: 2
    stride: 2
  }
}
layer {
  name: "conv2"
  type: "Convolution"
  bottom: "pool1"
  top: "conv2"
  param {
    name: "conv2_w"
    lr_mult: 1
    decay_mult: 0
  }
  param {
    name: "conv2_b"
    lr_mult: 2
    decay_mult: 0
  }
  convolution_param {
    num_output: 40
    kernel_size: 3
    stride: 1
    weight_filler {
      type: "gaussian"
      std: 0.01
    }
    bias_filler {
      type: "constant"
    }
  }
}

layer {
  name: "relu2"
  type: "ReLU"
  bottom: "conv2"
  top: "conv2"
}
layer {
  name: "pool2"
  type: "Pooling"
  bottom: "conv2"
  top: "pool2"
  pooling_param {
    pool: MAX
    kernel_size: 2
    stride: 1
  }
}
layer {
  name: "conv3"
  type: "Convolution"
  bottom: "pool2"
  top: "conv3"
  param {
    name: "conv3_w"
    lr_mult: 1
    decay_mult: 0
  }
  param {
    name: "conv3_b"
    lr_mult: 2
    decay_mult: 0
  }
  convolution_param {
    num_output: 60
    kernel_size: 3
    stride: 1
    weight_filler {
      type: "gaussian"
      std: 0.01
    }
    bias_filler {
      type: "constant"
    }
  }
}

layer {
  name: "relu3"
  type: "ReLU"
  bottom: "conv3"
  top: "conv3"
}
layer {
  name: "pool3"
  type: "Pooling"
  bottom: "conv3"
  top: "pool3"
  pooling_param {
    pool: MAX
    kernel_size: 2
    stride: 2
  }
}
layer {
  name: "conv4"
  type: "Convolution"
  bottom: "pool3"
  top: "conv4"
  param {
    name: "conv4_w"
    lr_mult: 1
    decay_mult: 0
  }
  param {
    name: "conv4_b"
    lr_mult: 2
    decay_mult: 0
  }
  convolution_param {
    num_output: 80
    kernel_size: 2
    stride: 1
    weight_filler {
      type: "gaussian"
      std: 0.01
    }
    bias_filler {
      type: "constant"
    }
  }
}
layer {
  name: "relu4"
  type: "ReLU"
  bottom: "conv4"
  top: "conv4"
}
layer {
  name: "fc160_1"
  type: "InnerProduct"
  bottom: "pool3"
  top: "fc160_1"
  param {
    name: "fc160_1_w"
    lr_mult: 1
    decay_mult: 1
  }
  param {
    name: "fc160_1_b"
    lr_mult: 2
    decay_mult: 1
  }
  inner_product_param {
    num_output: 160
    weight_filler {
      type: "gaussian"
      std: 0.01
    }
    bias_filler {
      type: "constant"
    }
  }
}

layer {
  name: "fc160_2"
  type: "InnerProduct"
  bottom: "conv4"
  top: "fc160_2"
  param {
    name: "fc160_2_w"
    lr_mult: 1
    decay_mult: 1
  }
  param {
    name: "fc160_2_b"
    lr_mult: 2
    decay_mult: 1
  }
  inner_product_param {
    num_output: 160
    weight_filler {
      type: "gaussian"
      std: 0.01
    }
    bias_filler {
      type: "constant"
    }
  }
}
layer {
  name: "fc160"
  type: "Eltwise"
  bottom: "fc160_1"
  bottom: "fc160_2"
  top: "fc160"
  eltwise_param {
    operation: 1
  }
}
#layer {
#  name: "dropout"
#  type: "Dropout"
#  bottom: "fc160"
#  top: "fc160"
#  dropout_param {
#    dropout_ratio: 0.4
#  }
#}
layer {
  name: "slice_data"
  type: "Slice"
  bottom: "fc160"
  top: "fea1"
  top: "fea2"
  slice_param {
    axis: 0
    slice_point: 128
  }
  include {
    phase: TRAIN
  }
}
layer {
  name: "label2sim"
  type: "Eltwise"
  bottom: "label1"
  bottom: "label2"
  top: "sim"
  eltwise_param {
    operation: 3
  }
  include {
    phase: TRAIN
  }
}
layer {
  name: "loss_contra"
  type: "ContrastiveLoss"
  bottom: "fea1"
  bottom: "fea2"
  bottom: "sim"
  top: "loss_contra"
  contrastive_loss_param {
margin: 10
    legacy_version: true
  }
loss_weight: 0.009
  include {
    phase: TRAIN
  }
}
layer {
  name: "fc_class"
  type: "InnerProduct"
  bottom: "fc160"
  top: "fc_class"
  param {
    name: "fc_class_w"
    lr_mult: 1
    decay_mult: 1
  }
  param {
    name: "fc_class_b"
    lr_mult: 2
    decay_mult: 1
  }
  inner_product_param {
    num_output: 10499
    weight_filler {
      type: "gaussian"
      std: 0.01
    }
    bias_filler {
      type: "constant"
    }
  }
}
layer {
  name: "loss"
  type: "SoftmaxWithLoss"
  bottom: "fc_class"
  bottom: "label"
  top: "loss"
}
layer {
  name: "accuracy"
  type: "Accuracy"
  bottom: "fc_class"
  bottom: "label"
  top: "accuracy"
  include {
    phase: TEST
  }
}
